cosa/agente_0.pth (torch, 76946 bytes, 6 tensors)

fc.0.weight f4 [128, 11]
0	0x3de9c9e0	0.11415458
1	0xbe619742	-0.22030357
2	0x3e3bc346	0.1833621
3	0x3e7862b3	0.24256401
4	0xbdfb7196	-0.12277524
5	0x3e994b30	0.29940176
6	0xbd624410	-0.05524069
7	0xbdc483c8	-0.09595448
8	0x3e8e0d5b	0.27744564
9	0x3e0c4a85	0.13700302
10	0x3dc66bef	0.096885554
11	0xbe36e760	-0.178617
12	0x3e4b7ba0	0.19871378
13	0xbce3b697	-0.027797027
14	0x3e5a85c6	0.21340093
15	0x3d35bef0	0.044371545
16	0x3e13ab08	0.14420712
17	0x3e36da58	0.17856729
18	0x3e5a219a	0.2130188
19	0xbe6753d3	-0.2259057
20	0x3e8ab398	0.27090144
21	0x3e9a303b	0.30114922
22	0xbe84d3d5	-0.25942865
23	0xbc5e96f6	-0.013585797
24	0xbd7418c9	-0.05959395
25	0x3df93da7	0.121699624
26	0xbdd78cc2	-0.10524894
27	0x3e878458	0.26468158
28	0xbe110912	-0.14163616
29	0x3dcf453a	0.10120626
30	0xbe1eab2b	-0.15494983
31	0x3e84b6a4	0.25920594
32	0xbe2cee68	-0.1688782
33	0x3cb24826	0.021762919
34	0xbe7ab98c	-0.24484843
35	0xbe96c170	-0.29444456
36	0xbdbdf7ac	-0.09275755
37	0xbe7fe652	-0.24990204
38	0x3dd553b0	0.10416353
39	0xbd08ebe0	-0.033428073
40	0xbe1aa456	-0.15101752
41	0x3e82e329	0.25563934
42	0xbe840beb	-0.25790343
43	0x3d903d14	0.070429
44	0xbd831537	-0.06400531
45	0x3dd6f602	0.10496141
46	0x3e867036	0.26257485
47	0xbd40f020	-0.047104
48	0x3e865316	0.26235265
49	0xbe4ad83e	-0.19809052
50	0xbe5461c0	-0.20740414
51	0xbe978be4	-0.29598916
52	0xbd0ff4ad	-0.03514545
53	0x3e0a7fa0	0.13525248
54	0xbe597762	-0.21236947
55	0xbe78c4cf	-0.24293827
56	0xbd4fb4f6	-0.050709687
57	0x3e3f0a21	0.18656208
58	0xbd756c0f	-0.059917506
59	0xbe303a6d	-0.17209788
60	0x3e835604	0.25651562
61	0xbe75dc36	-0.24009785
62	0x3e8b8ea6	0.2725727
63	0xbe549403	-0.20759587
64	0xbd931d4e	-0.07183324
65	0xbd86d9d1	-0.06584514
66	0xbd1353e8	-0.03596869
67	0x3e06a661	0.13149406
68	0x3e732a05	0.23746498
69	0x3e353702	0.17696765
70	0x3bc76f80	0.00608629
71	0x3c9f9a90	0.01948288
72	0xbe564120	-0.2092328
73	0x3e6d0451	0.23146178
74	0xbdde2ef2	-0.10848798
75	0xbd818850	-0.06324828
76	0xbc2bbbb0	-0.01048176
77	0xbd7b67c7	-0.061378267
78	0xbe76dff2	-0.24108866
79	0xbd772ab7	-0.06034347
80	0x3e17f0cc	0.1483795
81	0x3e8fd97e	0.2809562
82	0xbe2aba29	-0.16672577
83	0xbddcbcfa	-0.10778232
84	0xbde69ce6	-0.11260395
85	0xbe5ccb64	-0.21561962
86	0x3e69b0ad	0.22821303
87	0x3dbec7a6	0.09315424
88	0x3e0a68c6	0.1351653
89	0x3e6e3f22	0.23266271
90	0xbe9b24f6	-0.30301636
91	0xbd020855	-0.031746227
92	0xbe086e07	-0.13323222
93	0xbe2ea55d	-0.17055269
94	0xbe0f7248	-0.14008439
95	0x3e2cce8d	0.16875668
96	0xbd787ae6	-0.06066408
97	0xbe07ce14	-0.13262206
98	0x3e819385	0.2530786
99	0xbdb84ce9	-0.089990444
100	0x3d8c4e93	0.06850924
101	0x3e8ee52e	0.27909225
102	0x3dbb2a6a	0.09138949
103	0xbcaf3500	-0.021387577
104	0x3e68c45c	0.22731155
105	0x3c7f9fc0	0.015602052
106	0xbcfeaed3	-0.031089222
107	0x3e56da4a	0.20981708
108	0xbe5286a7	-0.20559178
109	0xbcf39d7f	-0.029738186
110	0xbdbbbf7e	-0.091673836
111	0x3d2ed510	0.04268366
112	0x3e5df936	0.21677098
113	0x3dd26830	0.102737784
114	0xbe32d271	-0.1746309
115	0x3e081792	0.13290241
116	0xbe309091	-0.17242648
117	0x3d82259e	0.06354831
118	0x3e814bd0	0.25253153
119	0x3e29a9a8	0.16568625
120	0xbe671872	-0.22567919
121	0xbc84b63a	-0.016200174
122	0xbe79694b	-0.24356572
123	0xbe1ae017	-0.15124546
124	0xbe430bde	-0.19047496
125	0xbe456cef	-0.19279836
126	0x3d04d230	0.032427013
127	0xbe80a8cf	-0.2512879
128	0x3e554510	0.20827127
129	0xbe2edfbc	-0.17077535
130	0x3e1190bb	0.14215367
131	0x3d4996d8	0.04921612
132	0x3e6dfcfa	0.23241034
133	0x3e363407	0.17793284
134	0xbe144625	-0.14479883
135	0xbdf2db16	-0.118581936
136	0xbe509505	-0.20369346
137	0xbe9a2e24	-0.30113328
138	0xbe48ec93	-0.19621496
139	0x3dac9d27	0.08428412
140	0xbea594b4	-0.32340014
141	0x3e8d4acc	0.27596128
142	0xbe93e72e	-0.28887314
143	0xbdf5019f	-0.119632
144	0xbd184358	-0.0371736
145	0xbd4bade0	-0.049726367
146	0x3e348b17	0.17631184
147	0x3e7c1998	0.24619138
148	0xbc78eb20	-0.015192777
149	0xbe6c2a29	-0.23062958
150	0xbe13b295	-0.14423592
151	0xbd946985	-0.07246689
152	0xbd0a45c5	-0.033757944
153	0xbe89181e	-0.26776212
154	0x3e6160ea	0.22009626
155	0xbe034e5e	-0.12822863
156	0x3d662fbf	0.056197878
157	0xbe766166	-0.24060592
158	0x3e1f8892	0.15579441
159	0x3e2d23b2	0.16908148
160	0xbdde0964	-0.10841635
161	0xbc12c4a2	-0.008958014
162	0x3e0405d4	0.12892848
163	0x3e44198c	0.1915037
164	0x3e17a695	0.1480964
165	0xbe84ac7b	-0.25912842
166	0x3df8f678	0.12156385
167	0x3dccf9c3	0.10008576
168	0x3e913333	0.28359374
169	0x3e66aa48	0.22525895
170	0x3e967f5e	0.29394048
171	0x3e940872	0.28912693
172	0x3de9faff	0.11424827
173	0xbe03dd50	-0.12877393
174	0xbe60f223	-0.21967368
175	0xbe40ea26	-0.1883932
176	0xbe87e61f	-0.26542756
177	0x3da9a87a	0.082840875
178	0x3e156ff3	0.14593486
179	0xbe128d8a	-0.14311805
180	0x3e143594	0.14473563
181	0xbd6e9374	-0.05824609
182	0xbaa08c00	-0.0012248755
183	0xbe420fb7	-0.18951307
184	0x3decb3d7	0.11557739
185	0x3d836d6c	0.06417355
186	0xbe88c652	-0.26713806
187	0xbe036091	-0.12829806
188	0xbe3fd160	-0.18732214
189	0x3e04e37c	0.12977403
190	0x3c604000	0.013687134
191	0x3e14b2e4	0.14521366
192	0x3e8d166e	0.27556175
193	0xbe0671ac	-0.131293
194	0x3dc42959	0.09578199
195	0xbe4942f5	-0.19654448
196	0x3d712298	0.05887088
197	0x3e2bd2f1	0.16779687
198	0xbd679d37	-0.056546416
199	0xbe237c95	-0.15965493
200	0x3d9a30ee	0.07528864
201	0x3e52ece4	0.20598179
202	0xbd2e2098	-0.042511553
203	0x3cf87530	0.030329317
204	0x3bd06cc0	0.0063606203
205	0x3e881787	0.2658045
206	0x3d857c01	0.065177925
207	0xbb981815	-0.0046415427
208	0xbe6c4872	-0.2307451
209	0xbe17ec2e	-0.14836189
210	0x3de426eb	0.111402355
211	0xbcde582e	-0.027141657
212	0x3e6aee27	0.2294241
213	0x3e719968	0.23593676
214	0xbcae89c0	-0.021305919
215	0x3e638db4	0.22222024
216	0x3e69e80a	0.22842422
217	0xbc6050d1	-0.013691143
218	0x3e047099	0.12933578
219	0xbe884896	-0.2661788
220	0x3dbeb3c6	0.09311633
221	0x3dc65cd8	0.09685677
222	0x3df1196f	0.11772429
223	0x3d00f4f3	0.0314836
224	0x3e013262	0.12616876
225	0x3de6aba8	0.112632096
226	0xbd3ed380	-0.04658842
227	0xbe0a17ba	-0.13485613
228	0x3d9a534e	0.0753542
229	0x3e340344	0.1757937
230	0x3e7ec429	0.24879517
231	0x3e6785cd	0.22609635
232	0xbe06c351	-0.13160445
233	0xbe2d600e	-0.16931173
234	0x3d96e28c	0.07367429
235	0x3e291fd2	0.16516045
236	0xbdc796ca	-0.097455576
237	0x3e927e92	0.2861219
238	0xbe05a230	-0.13050151
239	0xbe3fec64	-0.1874252
240	0xbe299fc1	-0.16564848
241	0xbd415d8b	-0.04720835
242	0xbddd2818	-0.10798663
243	0x3df1a719	0.117994495
244	0x3e4512ea	0.19245496
245	0xbe692b6d	-0.22770472
246	0x3e99e788	0.30059457
247	0xbce92310	-0.028459102
248	0xbe6e2e13	-0.23259763
249	0xbe7ee12e	-0.24890587
250	0x3b74c685	0.0037349772
251	0x3e58fbf9	0.2118987
252	0x3e088fd5	0.13336118
253	0xbd7172c1	-0.05894733
254	0xbe84ad4e	-0.2591347
255	0xbdd64890	-0.10463059

fc.0.bias f4 [128]
0	0x3ae798fc	0.0017669494
1	0xbe8c4fab	-0.27404532
2	0x3e35447c	0.17701906
3	0xbe6201b8	-0.22070968
4	0xbe94732c	-0.2899412
5	0x3dbf5385	0.09342102
6	0xbcc4793b	-0.023983588
7	0xbe0551a6	-0.13019428
8	0x3e1d5d83	0.15367703
9	0x3df47706	0.119367644
10	0xbdb5ac99	-0.08870811
11	0x3e8d05e5	0.2754356
12	0x3e7ba3f0	0.24574256
13	0x3c2070b0	0.009792492
14	0x39cceef2	0.0003908794
15	0xbe479959	-0.19492091
16	0x3e882a30	0.26594687
17	0xbe55aab6	-0.20865902
18	0xbe602ed7	-0.21892868
19	0x3e6cbd5c	0.2311911
20	0xbe7a498e	-0.24442121
21	0xbe1d0a4a	-0.15335956
22	0x3d53ddd2	0.051725216
23	0x3e8a401b	0.27002034
24	0xbdca3deb	-0.09875091
25	0xbd07a690	-0.03311783
26	0x3dae454b	0.0850931
27	0xbe8feee3	-0.28111944
28	0xbe31b80c	-0.17355365
29	0xbea5588c	-0.32294118
30	0xbd13093a	-0.03589747
31	0x3cbf59ae	0.023358192
32	0xbccdb298	-0.025109574
33	0xbe8bb7da	-0.27288705
34	0xbe0fd8b7	-0.14047514
35	0x3c93edc3	0.01805771
36	0xbda7d506	-0.08194928
37	0xbe3ab3dd	-0.18232675
38	0xbe74e315	-0.2391475
39	0x3ca71549	0.020395892
40	0xbe86ef5e	-0.26354498
41	0xbd5de320	-0.05417168
42	0x3e8248c6	0.25446147
43	0xbe5448ac	-0.20730847
44	0xbe700e29	-0.23442902
45	0xbe97c476	-0.29642075
46	0x3e845f08	0.25853753
47	0x3e25b6d2	0.16183022
48	0xbd571c5b	-0.052517276
49	0xbdf5ca1d	-0.12001441
50	0x3b819ef3	0.003955716
51	0x3d204e88	0.039137393
52	0x3dd261a5	0.102725305
53	0x3de618ad	0.11235175
54	0xbe3c803c	-0.18408293
55	0x3d72ddcc	0.059293553
56	0xbcfae652	-0.030627403
57	0x3e5ca7d3	0.21548395
58	0x3e3ac032	0.18237379
59	0xbd63fc0d	-0.055660296
60	0xbe85f882	-0.2616616
61	0x3ce5bfb4	0.028045513
62	0x3db612d1	0.08890308
63	0x3e8dca6b	0.27693495
64	0x3e56da25	0.20981653
65	0xbd40b5d2	-0.047048397
66	0xbe212837	-0.15737997
67	0xbe8f2078	-0.2795446
68	0x3e7e4c79	0.2483386
69	0x3e32732d	0.17426749
70	0xbe6a3330	-0.22871089
71	0xbe9ac921	-0.30231574
72	0xbe37a4bf	-0.1793394
73	0x3e73f765	0.23824842
74	0xbd8e799c	-0.06956789
75	0xbc28fd34	-0.010314275
76	0xbe89722c	-0.2684492
77	0xbea84d6b	-0.32871565
78	0x3e1f2f51	0.15545394
79	0xbe75398e	-0.23947737
80	0xbe928fba	-0.2862528
81	0xbe358c6c	-0.17729348
82	0x3e895ed9	0.26830176
83	0xbe425e96	-0.18981394
84	0x3d520c6d	0.05128138
85	0xbddb166d	-0.10697637
86	0x3e90efcc	0.2830795
87	0x3e23bfea	0.15991178
88	0x3e27313a	0.16327372
89	0x3e0aab63	0.13541941
90	0xbde90dfd	-0.11379621
91	0x3e360514	0.17775375
92	0xbe8a86b0	-0.27055883
93	0xbe4168e7	-0.18887673
94	0xbe0a1fd1	-0.134887
95	0x3d98a8f6	0.07454102
96	0xbe14328c	-0.14472407
97	0x3e4d92d6	0.20075545
98	0xbdb390f1	-0.0876788
99	0x3dc25dbb	0.09490534
100	0x3d8ae922	0.06782748
101	0xbdaf09a8	-0.08546764
102	0xbce77a54	-0.028256573
103	0xbe7706c9	-0.24123682
104	0xbe7cab74	-0.24674779
105	0x3dbacce1	0.09121109
106	0x3e0b69de	0.13614604
107	0xbe6a512f	-0.22882532
108	0xbd9cf2ad	-0.07663474
109	0x3e2b1dc0	0.16710567
110	0x3dfa6677	0.12226575
111	0xbe8cacad	-0.2747549
112	0x3e734d40	0.23759937
113	0x3e7de0c1	0.24792768
114	0x3e4d0be8	0.20024073
115	0xbe79702c	-0.24359196
116	0xbe82034d	-0.25393143
117	0x3d85e943	0.06538632
118	0x3e766947	0.24063598
119	0xbd805e55	-0.062679924
120	0x3e8d5d61	0.27610305
121	0x3c705bd3	0.01467033
122	0x3e04266a	0.12905279
123	0x3df59a8a	0.119923666
124	0xbe80890c	-0.25104558
125	0xbe5b63fb	-0.21424858
126	0xbe8730e9	-0.26404503
127	0x3dedde46	0.11614661

fc.2.weight f4 [128, 128]
0	0x3d6aa85a	0.05728946
1	0xbc4a3f8a	-0.01234425
2	0xbccdbc36	-0.02511416
3	0x3d96f598	0.07371062
4	0x3d9bccbe	0.07607411
5	0xbe51631d	-0.20447965
6	0xbd16bc97	-0.036800947
7	0x3e6ea501	0.23305131
8	0x3d95f139	0.073214
9	0x3d1e623f	0.038667914
10	0xbcd6d33f	-0.026223777
11	0xbc794158	-0.015213333
12	0x3d4ae4ce	0.04953461
13	0xbd73e498	-0.059544176
14	0x3dd54e86	0.10415368
15	0x3de3cb32	0.11122741
16	0x3c222c10	0.009898201
17	0xbd350390	-0.04419285
18	0x3ba8c6b0	0.0051506385
19	0x3dfc81cc	0.12329444
20	0x3d5ef502	0.054432876
21	0x3d45df44	0.048308626
22	0x3dab2e80	0.083584785
23	0x3c309afd	0.01077914
24	0xbaf40f08	-0.0018620202
25	0x3e1547e0	0.145782
26	0xbe80dfd5	-0.2517077
27	0x3d709ce7	0.058743384
28	0x3d038f09	0.03211883
29	0x3d7a66fe	0.061133377
30	0xbd8714d9	-0.06595773
31	0x3b9eb24b	0.0048430315
32	0xbd88cb02	-0.06679346
33	0xbcc36a94	-0.023854531
34	0x3e446ce0	0.19182158
35	0xbdce8ef6	-0.100858614
36	0xbdfaa2c1	-0.12238074
37	0x3d7be123	0.061494004
38	0xbd1b02f2	-0.037844606
39	0x3d4ae2fc	0.049532875
40	0xbd3acff8	-0.04560849
41	0x3e093a4a	0.13401142
42	0x3b0395e7	0.0020078362
43	0x3d74426a	0.05963365
44	0xbe051ca4	-0.12999207
45	0x3d40fb83	0.04711486
46	0x3d37dae6	0.044886492
47	0xbda6cfc1	-0.08145095
48	0xbe028bdf	-0.12748669
49	0x3e34aa56	0.17643103
50	0xbe299f79	-0.1656474
51	0x3cf98249	0.030457633
52	0xbb9f7364	-0.0048660506
53	0xbe516c92	-0.20451573
54	0xbe453b4c	-0.19260901
55	0xbda92394	-0.08258739
56	0x3d4b118b	0.049577277
57	0xbd490af0	-0.049082696
58	0xbeb2d298	-0.34926295
59	0x3e8b02ac	0.27150476
60	0x3dc552c1	0.09634925
61	0x3e84187d	0.25799933
62	0x3e33f99d	0.17575689
63	0xbbb309e7	-0.005463827
64	0x3d2a8bd1	0.041637246
65	0x3c35a6cc	0.011087131
66	0xbe1f80dd	-0.15576501
67	0xbe01ee3d	-0.12688537
68	0x3d961b52	0.0732943
69	0x3d76ac34	0.06022282
70	0xbe51f97b	-0.20505325
71	0xbd952537	-0.07282489
72	0x3e0a6522	0.13515142
73	0x3cda1f7b	0.02662634
74	0xbe2387cb	-0.1596977
75	0x3cca3a3b	0.02468597
76	0xbd8fc197	-0.07019346
77	0x3d0a6d6a	0.03379575
78	0xbe2a7e67	-0.16649781
79	0x3dfd8028	0.123779595
80	0x3d97a2e9	0.074041195
81	0x3d889a43	0.06670048
82	0x3da52d06	0.08065228
83	0x3d8e275c	0.06941101
84	0xbdf78e23	-0.12087657
85	0x3bffed67	0.007810283
86	0x3c733195	0.014843364
87	0xbc8bd739	-0.0170704
88	0xbe8932f5	-0.2679669
89	0xbcd4da3a	-0.025982965
90	0x3ddb0a4c	0.10695323
91	0xbdfa9bbb	-0.122367345
92	0x3cd8e5f5	0.02647684
93	0xbba7ad20	-0.0051170737
94	0xbd02622d	-0.03183191
95	0xbda452ad	-0.08023582
96	0x3dcce972	0.10005464
97	0xbcd7d677	-0.026347382
98	0xbcb7fa8a	-0.022458334
99	0xbdc56fd5	-0.09640471
100	0xbe163d31	-0.1467178
101	0x3da3e400	0.08002472
102	0xbd9f205f	-0.07769846
103	0x3d26d60e	0.040731482
104	0xbc95f55c	-0.018305473
105	0x3d5d76e2	0.054068454
106	0xbe5e735d	-0.21723695
107	0x3cc62388	0.024186864
108	0xbcd9ecc0	-0.026602149
109	0xbcaec1c6	-0.021332633
110	0x3e1e95f4	0.1548689
111	0x3c792565	0.015206669
112	0x3d93eabe	0.07222508
113	0xbe8025dc	-0.25028884
114	0x3d655316	0.05598744
115	0x3dc5e3b3	0.09662571
116	0x3dc50301	0.096197136
117	0x3db002af	0.08594262
118	0xbd2d5a1d	-0.042322267
119	0x3ce651f8	0.028115258
120	0x3c4a4a83	0.012346867
121	0xbe5ba6c2	-0.21450332
122	0xbe2d898a	-0.16946998
123	0x3e03d921	0.12875797
124	0xbd0738c2	-0.033013113
125	0xbe0c59ec	-0.13706177
126	0x3d6f840a	0.05847553
127	0xbd73765c	-0.05943905
128	0xbe0bf482	-0.13667491
129	0x3b525069	0.0032091385
130	0xbc502688	-0.012704499
131	0xbcddee92	-0.027091298
132	0x3ddefc07	0.10887914
133	0xbe14092c	-0.14456624
134	0xbd07758c	-0.033071086
135	0xbbbde5f0	-0.005795233
136	0x3d41db58	0.047328323
137	0xbd85cb8e	-0.065329656
138	0xbdfd165f	-0.123577826
139	0x3b55b643	0.0032609857
140	0x3d603dfd	0.054746617
141	0xbdbf72c2	-0.0934806
142	0x3c7c30a7	0.015392459
143	0xbce69bea	-0.028150517
144	0x3bf9f4b0	0.007628046
145	0x3e05aab0	0.13053393
146	0xbcd365d9	-0.0258054
147	0x3d37e266	0.044893645
148	0x3cc100f2	0.023560021
149	0x3d4cbca7	0.0499846
150	0x3cce258d	0.02516439
151	0xbd95171c	-0.072797984
152	0x3e877eb0	0.26463842
153	0xbdc298bc	-0.09501788
154	0xbdb5a84f	-0.08869993
155	0x3cdc7f86	0.026916277
156	0xbe712f88	-0.23553288
157	0xbe2c1fa2	-0.16808942
158	0x3d48b7ad	0.049003292
159	0x3a53320f	0.00080564705
160	0x3dc247a1	0.094863184
161	0xbe0a2029	-0.1348883
162	0x3e107122	0.14105657
163	0xbd2249b2	-0.039621063
164	0xbdb52be8	-0.08846265
165	0xbd8168ef	-0.063188426
166	0xbc9644fa	-0.018343437
167	0x3e3df129	0.18549027
168	0x3e0c36b1	0.13692738
169	0xbe23d542	-0.1599932
170	0xbe15210b	-0.14563386
171	0xbdc519e1	-0.09624077
172	0xbe1ab89e	-0.15109488
173	0x3c1b60aa	0.009483496
174	0xbdc83a2f	-0.09776723
175	0x3d24d5fb	0.04024313
176	0x3dc3b140	0.09555292
177	0x3bbd6bf7	0.0057806927
178	0xbd809981	-0.062792785
179	0xbd82f180	-0.06393719
180	0x3c8d6b7c	0.017263167
181	0x3c2e1e0a	0.010627279
182	0xbe701abc	-0.23447698
183	0xbdd0607b	-0.10174652
184	0xbd3a51ab	-0.04548804
185	0xbd0dd166	-0.034623526
186	0xbe52b2c1	-0.20576002
187	0xbe237b41	-0.15964986
188	0x3db99a2e	0.090626106
189	0x3db3d6dd	0.08781216
190	0xbde1e54b	-0.11030062
191	0x3d53bbf8	0.051692933
192	0xbe886861	-0.26642135
193	0xbbfafe17	-0.0076596844
194	0x3d82a976	0.06379978
195	0x3d9a8cae	0.07546364
196	0xbe1bbab8	-0.15207946
197	0x3dd8628f	0.105656736
198	0x3e2dbdb6	0.169669
199	0xbe31210b	-0.17297761
200	0x3cceb64c	0.02523341
201	0xbe1094e7	-0.14119302
202	0x3d8f5c09	0.06999976
203	0xbd451f7d	-0.048125733
204	0x3d844513	0.06458487
205	0x3dd4a42e	0.10382877
206	0x3c1782a3	0.009247455
207	0xbe4516b0	-0.19246936
208	0xbcad70d8	-0.021171972
209	0x3d90f140	0.07077265
210	0xb72b087e	-1.01943715e-05
211	0xbd2e05fb	-0.042486172
212	0xbbd91b8e	-0.006625599
213	0x3d703fc5	0.058654565
214	0xbdf90702	-0.1215954
215	0xbd517677	-0.051138368
216	0x3c9036bb	0.017604223
217	0xbe0ee39f	-0.13954018
218	0xbda42937	-0.080156736
219	0xbd9fd9d1	-0.07805217
220	0x3c16fed7	0.009216032
221	0xbe01d6bc	-0.12679571
222	0xbd8ef192	-0.0697967
223	0xbe83b738	-0.25725722
224	0xbde7a420	-0.11310601
225	0xbc871656	-0.016490143
226	0x3e1043a4	0.14088303
227	0x3e54128f	0.20710205
228	0xbdbb19af	-0.09135758
229	0xbd99b1df	-0.07504629
230	0xbcb18d85	-0.021673927
231	0x3dd86b47	0.105673365
232	0x3c86d6d0	0.016459852
233	0xbd4cdaf2	-0.05001349
234	0xbe39f588	-0.18160069
235	0xbd5d4e10	-0.054029524
236	0xbd26b244	-0.04069735
237	0xbc7af8f1	-0.015318141
238	0xbbd9a0f4	-0.0066415016
239	0xbda7d703	-0.08195307
240	0xbdb5b0fe	-0.08871649
241	0xbdd4b8f9	-0.10386843
242	0xbd92903f	-0.07156419
243	0xbb140a30	-0.002258908
244	0xbe4de1c4	-0.20105654
245	0x3e0d5734	0.13802797
246	0x3db40afc	0.087911576
247	0x3e389e73	0.18029194
248	0x3c81452c	0.015780054
249	0xbb023350	-0.001986701
250	0x3dd90dc9	0.105983324
251	0xbe1edd8b	-0.155142
252	0x3d191ad2	0.037379093
253	0xbe0831dc	-0.1330027
254	0xbd186b48	-0.037211686
255	0x3dc91128	0.098177254

fc.2.bias f4 [128]
0	0x3da0f7d8	0.078597724
1	0xbdd7add6	-0.105312034
2	0xbdb6e945	-0.089312114
3	0xbccee4fa	-0.025255669
4	0x3d1faee6	0.038985156
5	0xbd1b72f3	-0.03795142
6	0xbd25cece	-0.040480427
7	0xbcc4cdbb	-0.024023881
8	0xbdb4df36	-0.088316366
9	0xbd746747	-0.059668805
10	0xbc85a817	-0.016315503
11	0x3ca54ca9	0.020178156
12	0x3d96f4e6	0.073709294
13	0x3d3fffb3	0.046874713
14	0xbd782294	-0.06057985
15	0xbdb8738b	-0.09006413
16	0x3d921014	0.07131973
17	0x3d51e683	0.051245224
18	0x3d70b817	0.05876931
19	0xbc833313	-0.016015565
20	0xbd6db53a	-0.05803416
21	0xba880ad0	-0.0010379199
22	0xbd6ba47a	-0.057529904
23	0xbd422159	-0.047395084
24	0xbda589aa	-0.08082898
25	0xbd9271b7	-0.07150596
26	0xbda272d0	-0.07932055
27	0x3ce810e4	0.028328367
28	0xbdaaac20	-0.083336115
29	0xbd7b8880	-0.061409473
30	0xbd3a3c27	-0.045467522
31	0x3d8b61f4	0.068057925
32	0xbd9a486b	-0.07533344
33	0xbdb5790d	-0.08860979
34	0x3c12ffab	0.008972089
35	0x3d90f8a0	0.070786715
36	0xbc33a4be	-0.010964571
37	0x3d845d2d	0.06463084
38	0x3d0c7443	0.034290563
39	0xbd609b3b	-0.05483554
40	0x3d4ff860	0.05077398
41	0xbd1468af	-0.036232647
42	0x3cbc9617	0.023020787
43	0xbb9d36d4	-0.004797796
44	0x3d80767d	0.062726
45	0x3d30ab3b	0.043132048
46	0x3d53043f	0.05151772
47	0xbd620795	-0.055183012
48	0xbd49f8c3	-0.049309503
49	0x3bad052c	0.0052801576
50	0xbdb4fc37	-0.08837169
51	0x3c8dad70	0.017294616
52	0xbcbb168f	-0.022837905
53	0xbb26a3ef	-0.0025427302
54	0x3dab791e	0.08372711
55	0xbce93ee8	-0.028472379
56	0xbdbef4c0	-0.09324026
57	0xbd72d5e7	-0.059286024
58	0x3d13f354	0.036120728
59	0x3cab47c4	0.020908244
60	0xbd934f95	-0.071929134
61	0x3cfb877a	0.030704249
62	0x3c096e1b	0.008388068
63	0x3c57b7e9	0.013166406
64	0xbd9be6f7	-0.076124124
65	0x3d8b4299	0.06799812
66	0x3c90979b	0.017650416
67	0x3cf789b5	0.030217031
68	0x3c7b2ed6	0.015330991
69	0x3d5c0c51	0.053722683
70	0xbccd6355	-0.02507178
71	0xbd5bff98	-0.05371055
72	0xbbe227bd	-0.00690171
73	0xbce400a7	-0.027832342
74	0xbd7c8ec2	-0.061659582
75	0xbdc17a78	-0.09447187
76	0xbd40e137	-0.04708978
77	0xbc65c7d3	-0.014024693
78	0xbd8c4ba9	-0.068503685
79	0xbdb44ca7	-0.08803683
80	0xbd9e5f68	-0.07733041
81	0xbdc152f9	-0.09439654
82	0xbd82cbcd	-0.06386528
83	0x3cd54136	0.026032072
84	0xbdbfa770	-0.09358108
85	0xbd8a8c43	-0.06765034
86	0xbd362ee2	-0.044478305
87	0x3b599d1d	0.003320522
88	0xbda496f7	-0.08036607
89	0xbd7a525e	-0.061113708
90	0xbdbc96a8	-0.09208423
91	0x3d8cbbc8	0.06871754
92	0xbdc597c1	-0.096480854
93	0x3cbf0af4	0.023320653
94	0xbdcb9dee	-0.09942232
95	0xbdbcea33	-0.092243575
96	0xbd1a75b1	-0.037709896
97	0xbda1ab7b	-0.078940354
98	0x3d5e83e8	0.054325014
99	0x3d69cb9a	0.057078935
100	0x3d083b5a	0.033259727
101	0x3d06beab	0.03289668
102	0xbd3212bd	-0.0434749
103	0xbc925981	-0.017864944
104	0x3d896e0c	0.06710443
105	0x3d0da812	0.034584112
106	0x3c7ea6ca	0.015542695
107	0xbd7717b5	-0.060325343
108	0xbd58c9d3	-0.05292685
109	0x3c0a5974	0.008444179
110	0xbd3aff0d	-0.04565339
111	0x3d6ea4b3	0.05826254
112	0xbdbadecd	-0.09124527
113	0x3d72df12	0.059294768
114	0xbb6d9ac2	-0.0036255573
115	0xbd275c9d	-0.040859807
116	0xbbb41db8	-0.005496707
117	0xbc94f89b	-0.01818495
118	0xbdc87849	-0.097885676
119	0xbd122d27	-0.035687592
120	0x3d448b09	0.047984157
121	0xbdb63f27	-0.08898764
122	0xbd692651	-0.056921307
123	0x3d0b7069	0.03404275
124	0x3d2133ee	0.039356165
125	0x3d4758f6	0.048668824
126	0x3d0346c5	0.032049913
127	0xbc5f6462	-0.013634773

fc.4.weight f4 [4, 128]
0	0xbcdb4919	-0.026768254
1	0xbd0e1a4f	-0.03469306
2	0x3b93a7bd	0.00450608
3	0x3d36e8d9	0.044655655
4	0x3c568612	0.013093488
5	0xbd3cb77a	-0.046073414
6	0xbc528521	-0.012849123
7	0x3caca0eb	0.021072825
8	0xbdddc7ec	-0.10829148
9	0xbddb26ed	-0.10700784
10	0x3c88bcca	0.016691584
11	0xbd4ba024	-0.04971327
12	0xbc1a1468	-0.009404279
13	0x3cf7afb6	0.030235153
14	0x3cdf0a91	0.027226718
15	0x3c9183d0	0.017763048
16	0x3d0737d9	0.033012245
17	0xbd10dc89	-0.03536657
18	0xbd058af6	-0.032603227
19	0xbd139e7c	-0.036039814
20	0xbc492e39	-0.012279087
21	0xbbc6ee3e	-0.006070881
22	0xbd5d6d0f	-0.054059085
23	0xbb4ec207	-0.0031548755
24	0xbd385b47	-0.045008924
25	0xbd1112da	-0.03541837
26	0xbda5b65b	-0.08091422
27	0xbc92651c	-0.017870478
28	0xbb5f0086	-0.0034027412
29	0x3d9d137d	0.07669733
30	0x3cce9310	0.02521661
31	0xbd3b544f	-0.0457347
32	0x3d09cc60	0.033642173
33	0xbd59b11e	-0.053147428
34	0xbc0ce13a	-0.00859862
35	0x3d0f83bd	0.035037745
36	0x3d4fbb3d	0.050715674
37	0x3bb079f6	0.0053856326
38	0x3c700958	0.014650665
39	0x3d92d180	0.07168865
40	0x3d46cb8a	0.048533954
41	0xbdd4471d	-0.10365126
42	0xbd685be8	-0.056728274
43	0x3b1d7862	0.0024028053
44	0xbd7b04f4	-0.06128402
45	0xbd0a02bf	-0.033694025
46	0xbd98a94a	-0.07454164
47	0x3d62d043	0.055374395
48	0xbc8e411c	-0.017365031
49	0xbbe6c746	-0.007042798
50	0xbd83b3fd	-0.064308144
51	0xbd20d22e	-0.039262943
52	0xbd498f70	-0.04920906
53	0x3db4acfd	0.088220574
54	0x3d0c8aa9	0.034311924
55	0x3d4ff6f2	0.050772615
56	0x3d359900	0.044335365
57	0xbb94a8f1	-0.004536741
58	0x3d0bd3d9	0.03413758
59	0x3d0fae55	0.035078365
60	0xbc71bd78	-0.0147546455
61	0x3cb44ddd	0.022009784
62	0xbd553785	-0.0520549
63	0xbcc32841	-0.023822905
64	0xbd34c2c9	-0.044131074
65	0xbd9c239d	-0.0762398
66	0xbd435648	-0.047689706
67	0xbd3c54d7	-0.045979347
68	0x3d174220	0.036928296
69	0xbd8034df	-0.06260084
70	0xbca339c9	-0.019925015
71	0x3d987d79	0.07445807
72	0xbd8d6698	-0.06904334
73	0xbd00737b	-0.03136013
74	0xbd17af3c	-0.03703235
75	0x3c8a8510	0.016909152
76	0x3c931992	0.017956529
77	0xbcf5a578	-0.029986128
78	0x3d065728	0.032797962
79	0xbcaddcbe	-0.021223422
80	0xbd8a8fd9	-0.06765718
81	0xbd5870f6	-0.052842103
82	0x3d402db6	0.046918593
83	0xbc417bf6	-0.01180934
84	0x3d12502a	0.03572098
85	0xbcbe9f4b	-0.023269316
86	0xbc929ac0	-0.017896056
87	0xbc44d0a5	-0.012012635
88	0xbdabba01	-0.08385087
89	0xbce6434f	-0.028108267
90	0xbc8b11f9	-0.016976343
91	0xbcca0590	-0.024660856
92	0xbca07853	-0.019588625
93	0xbd516e4c	-0.051130578
94	0xbd5d722f	-0.054063972
95	0x3d6d50a5	0.057938237
96	0xbd5750d8	-0.052567333
97	0x3cb28231	0.021790596
98	0x3c600804	0.013673786
99	0x3c5e406a	0.013565162
100	0x3d867b65	0.065665044
101	0xbc403892	-0.011732237
102	0xbd57fbb3	-0.052730273
103	0xbc83ba11	-0.016079934
104	0xbd95ad32	-0.07308425
105	0x3d5effe5	0.05444326
106	0xbbf2b6bb	-0.007407037
107	0xbd63d76d	-0.055625368
108	0x3da5efb0	0.081023574
109	0x3d3de897	0.046364393
110	0xbd81e2df	-0.063421
111	0x3cc0b2fd	0.023522848
112	0x3c671802	0.014104845
113	0x3ce9deb1	0.02854857
114	0xbd61a6cf	-0.05509072
115	0x3c65a468	0.014016248
116	0xbd0e99fc	-0.03481482
117	0xbd24343e	-0.040088885
118	0xbd7f0e7c	-0.062269673
119	0x3d86c2c9	0.06580121
120	0xbd0eede0	-0.034894824
121	0x3d9da4d2	0.076974526
122	0xbc31317f	-0.010815023
123	0x3daa6e1f	0.08321785
124	0xbcb99600	-0.022654533
125	0x3c9662cb	0.018357655
126	0x3cf65530	0.030069917
127	0xbd06002b	-0.032715004
128	0xbd729aae	-0.059229545
129	0xbd95c5e2	-0.07313134
130	0xbd79abe4	-0.060954943
131	0xbca4e9e6	-0.020131063
132	0x3d98eb14	0.074667126
133	0xbc977ebe	-0.018493053
134	0xbd8b9672	-0.068158045
135	0xbd5949fc	-0.053049073
136	0x3d03f595	0.032216627
137	0xbd16e099	-0.036835287
138	0x3d9ca766	0.07649116
139	0x3cb74306	0.022370826
140	0x3c9f73b6	0.019464355
141	0x3bbb85f6	0.0057227565
142	0x3ce82672	0.028338645
143	0xbd4a1d61	-0.049344424
144	0x3d7d23a3	0.061801564
145	0xbcf1163f	-0.029429553
146	0x3c6bdf99	0.014396572
147	0x3d4dd4b9	0.050251696
148	0x3d55fb75	0.05224176
149	0xbd415531	-0.047200385
150	0x3c5bd6c6	0.013417905
151	0xbc6287a1	-0.013826282
152	0xbbce9db0	-0.006305419
153	0x3c4c3785	0.012464409
154	0xbdbafb8e	-0.091300115
155	0xbd7805b4	-0.060552314
156	0x3d345354	0.04402478
157	0x3d53dc32	0.051723666
158	0x3d2b7fce	0.04186993
159	0xbc613617	-0.013745806
160	0xbdbd3291	-0.092381604
161	0xbc91ff9b	-0.017822077
162	0xbb0057a5	-0.001958349
163	0x3c89e979	0.016834961
164	0xbcfbc883	-0.03073526
165	0xbd725a10	-0.05916792
166	0x3d7b83a2	0.06140483
167	0x3d3b6a8a	0.0457559
168	0xbd1aa21a	-0.03775225
169	0x3c7669b3	0.015039849
170	0xbd9db319	-0.07700176
171	0x3d3828cd	0.044960786
172	0x3d17c33d	0.037051428
173	0xbc669eac	-0.014075916
174	0xbda3a370	-0.079901576
175	0xbb31fb33	-0.0027157783
176	0x3d3c7e22	0.046018727
177	0xbcec879c	-0.028873257
178	0xbc730aad	-0.014834088
179	0xbd92b729	-0.07163841
180	0xbd3ec446	-0.0465739
181	0x3c9e7cdf	0.019346653
182	0xbd949d96	-0.0725662
183	0x3c3163cd	0.010827017
184	0x3d23a588	0.039952785
185	0xbd49e7c3	-0.04929329
186	0x3a811143	0.0009847063
187	0x3c1ba889	0.009500631
188	0xbc961b5b	-0.018323591
189	0x3d4b36d4	0.049612835
190	0x3cda87ad	0.026676023
191	0xbcc273f4	-0.023736931
192	0xbc6e718a	-0.014553437
193	0xbd0ca39d	-0.03433572
194	0xbd79afd2	-0.06095869
195	0xbc9d38ea	-0.019192178
196	0xbbf9eaf3	-0.007626885
197	0xbd38ed65	-0.045148272
198	0x3d8cfac3	0.068837665
199	0xbc3c36b1	-0.011487649
200	0xbd231405	-0.039814014
201	0x3c9ceed8	0.019156858
202	0xbd0d28c8	-0.03446272
203	0xba60f3a9	-0.000858123
204	0x3d5775e5	0.052602667
205	0x3ad0968d	0.0015914008
206	0xbd50026c	-0.05078356
207	0x3d4dd191	0.050248686
208	0x3c2eb3c6	0.0106629785
209	0x3d0f25f4	0.034948304
210	0xbcc51ccb	-0.024061581
211	0xbd86868e	-0.06568633
212	0xbd0ecb94	-0.034862116
213	0xbd62af75	-0.05534311
214	0x3d59839f	0.05310404
215	0x3d8116ca	0.06303175
216	0x3d29a817	0.04142007
217	0xbd923427	-0.071388535
218	0x3d275384	0.04085113
219	0x3c8e0c56	0.017339867
220	0x3db5b941	0.08873225
221	0x3d4db7e1	0.05022419
222	0x3d1418c2	0.036156423
223	0xbd08ca6d	-0.033396173
224	0x3b60a0f2	0.0034275618
225	0x3bee44a6	0.007271367
226	0x3c0aaca0	0.008464009
227	0xbdc5ebb4	-0.096640974
228	0xbd280b8c	-0.041026637
229	0x3d81bf73	0.06335344
230	0xbd2e3fb1	-0.04254121
231	0x3cc7ec85	0.024404773
232	0xbd02cee4	-0.031935588
233	0xbd69376f	-0.05693763
234	0x3bbded32	0.005796098
235	0xbd5724f3	-0.052525472
236	0xbdbfb911	-0.093614705
237	0x3c213b41	0.009840787
238	0xbc11106f	-0.008854016
239	0xbd8ef712	-0.06980719
240	0xbb969aba	-0.0045960816
241	0x3d385be4	0.04500951
242	0x3c8e468c	0.017367624
243	0xbc8b6513	-0.01701597
244	0x3be327a1	0.0069322144
245	0x3d35f36a	0.04442159
246	0x3d1c3a94	0.038141802
247	0xbccce10a	-0.02500965
248	0xbb951821	-0.0045499955
249	0xbd4cd38b	-0.05000643
250	0xbd2409f9	-0.040048573
251	0x3dac1a4e	0.08403455
252	0xbd3ffb1b	-0.046870332
253	0xbb350f19	-0.0027627407
254	0xbcacc3e6	-0.021089505
255	0x3d6f25a6	0.058385514

fc.4.bias f4 [4]
0	0xbc9a83d7	-0.018861694
1	0x3c28de23	0.010306868
2	0xbce7052f	-0.028200714
3	0x3c045cdd	0.008078781
