cosa/best_agent_49.pth (torch, 76932 bytes, 6 tensors)

fc.0.weight f4 [128, 11]
0	0x3e08b38e	0.13349745
1	0x3c9e8950	0.019352585
2	0x3e5b6050	0.21423459
3	0x3e5c3880	0.21505928
4	0x3d01b5f8	0.03166768
5	0xbe35af37	-0.1774262
6	0xbe699527	-0.22810803
7	0x3d0ed560	0.03487146
8	0x3e86f3b0	0.26357794
9	0xbdbc52d2	-0.09195484
10	0xbe2d111d	-0.1690106
11	0xbe4c71d4	-0.19965297
12	0x3e81b80e	0.25335735
13	0x3e9150d6	0.28381985
14	0x3e2f749a	0.17134324
15	0xbddfc7e8	-0.10926801
16	0xbe3d3122	-0.18475774
17	0xbdccf116	-0.10006921
18	0xbdf77a90	-0.12083924
19	0x3e0dc1f0	0.13843513
20	0x3e2ade80	0.1668644
21	0xbe946b60	-0.2898817
22	0x3da3be24	0.07995251
23	0x3e5a8e78	0.2134341
24	0xbd95f9fc	-0.07323071
25	0xbe4faca4	-0.20280701
26	0x3c4c6920	0.012476236
27	0x3daa9330	0.08328855
28	0xbdea7062	-0.114472166
29	0xbd3b7aa8	-0.04577127
30	0x3d658920	0.056038976
31	0x3e4d9568	0.20076525
32	0x3e424146	0.18970212
33	0x3deecc9c	0.1166012
34	0xbe2d4e98	-0.16924512
35	0xbe90e2b1	-0.28297952
36	0xbe189959	-0.14902247
37	0x3e549e24	0.20763451
38	0xbe5d481f	-0.21609543
39	0xbd1bb7b0	-0.038016975
40	0x3e333db2	0.17504004
41	0x3d191558	0.03737387
42	0x3d61ef00	0.05515957
43	0x3e45eba4	0.19328171
44	0x3e2679b8	0.1625737
45	0xbdefa974	-0.117022425
46	0xbe81005a	-0.2519558
47	0xbe8b0c1c	-0.27157676
48	0x3c30e5a0	0.010796934
49	0x3e5d3ab4	0.21604425
50	0x3ce170d0	0.027519614
51	0x3d55cc88	0.05219701
52	0xbdf55cd2	-0.11980595
53	0x3d862ef0	0.06551921
54	0x3e6c5ef8	0.23083103
55	0xbe4609c0	-0.19339657
56	0x3e7d8254	0.24756747
57	0x3e643528	0.22285903
58	0x3e955962	0.29169756
59	0x3e8dbc50	0.27682734
60	0x3c9a74c0	0.018854499
61	0xbe06a857	-0.13150154
62	0x3d7e8438	0.062137812
63	0xbe937c8e	-0.28805965
64	0xbe85246a	-0.26004344
65	0xbdec484e	-0.115372285
66	0xbe31d637	-0.17366873
67	0xbd7f38e8	-0.06231013
68	0xbcf4e960	-0.029896438
69	0xbe1f57e0	-0.15560865
70	0xbe7d16bd	-0.24715705
71	0x3de16e18	0.11007327
72	0xbe3d6c19	-0.18498267
73	0xbe6861ae	-0.22693512
74	0x3e70d28c	0.23517817
75	0x3c761040	0.015018523
76	0xbdb19b84	-0.086722404
77	0xbdfcda00	-0.12346268
78	0xbde689cc	-0.112567514
79	0xbdd174d6	-0.10227363
80	0x3e5c2e3c	0.21502012
81	0x3e1c8750	0.15285993
82	0x3e6cb264	0.23114926
83	0x3e8fcdb8	0.28086638
84	0x3e82b15a	0.25525934
85	0xbd243fe0	-0.04009998
86	0x3e132186	0.14368257
87	0x3c2d7760	0.010587543
88	0xbe51f24a	-0.20502582
89	0xbd94c73c	-0.072645634
90	0x3e6aadf0	0.22917914
91	0x3e7424c0	0.23842144
92	0xbda2a64e	-0.07941876
93	0xbe4b0ca4	-0.19829041
94	0x3e341eaa	0.17589822
95	0x3e24e76e	0.16103908
96	0x3e2f292a	0.17105547
97	0x3e1b9b70	0.15196013
98	0xbe690ae2	-0.22758058
99	0x3e24a6d6	0.16079268
100	0xbe70a2ca	-0.23499599
101	0x3e713440	0.23555088
102	0xbdea90b8	-0.11453384
103	0xbe670c26	-0.22563228
104	0x3d7632d8	0.060107082
105	0x3e4c2e20	0.1993947
106	0xbe1734a1	-0.1476617
107	0x3ce376c0	0.027766585
108	0xbb990280	-0.0046694875
109	0xbe452c9a	-0.19255295
110	0xbdd3737c	-0.10324761
111	0xbe20077f	-0.1562786
112	0xbe066fb1	-0.13128544
113	0x3e811142	0.2520848
114	0x3e2756d8	0.16341722
115	0x3e7c9c40	0.2466898
116	0xbcefb840	-0.029262662
117	0xbdcf212e	-0.101137504
118	0x3dfda1e8	0.12384397
119	0x3d2be6f8	0.041968316
120	0x3df4eb84	0.119589835
121	0x3d90b460	0.07065654
122	0x3d278eb0	0.04090756
123	0x3e680e80	0.22661781
124	0xbc602de0	-0.013682812
125	0x3d51f930	0.051263034
126	0xbcd53cb0	-0.026029915
127	0xbe47f82c	-0.19528264
128	0xbe1e8395	-0.15479882
129	0x3cce09e0	0.025151193
130	0x3e8eae96	0.27867573
131	0x3df98d04	0.121851
132	0xbac8ac00	-0.0015310049
133	0x3e050b1a	0.12992516
134	0x3e8864b0	0.26639318
135	0x3e4ec94c	0.20193976
136	0xbe6e0698	-0.23244703
137	0xbe036e74	-0.12835103
138	0x3db3db10	0.08782017
139	0xbc8d1f30	-0.017226785
140	0x3e92af6e	0.28649467
141	0xbe49f510	-0.1972239
142	0x3e86494c	0.26227796
143	0xbe91f3c3	-0.28506288
144	0x3cadfc60	0.021238506
145	0x3e90a23a	0.2824877
146	0x3a511e00	0.00079771876
147	0x3ddeba58	0.10875386
148	0x3e45685a	0.19278088
149	0xbd9b2456	-0.0757529
150	0x3cc170a0	0.023613274
151	0xbe9a0346	-0.30080622
152	0x3bb7fb00	0.0056146383
153	0xbe230490	-0.15919709
154	0x3e8a5784	0.27019894
155	0x3d8b9d90	0.06817162
156	0x3deb6a0c	0.11494836
157	0x3dbb13a4	0.091346055
158	0xbdd05142	-0.10171749
159	0xbe110831	-0.14163281
160	0x3e83c2c0	0.2573452
161	0x3e18e578	0.14931285
162	0x3e6aa9cc	0.22916335
163	0xbdc54e8e	-0.09634124
164	0xbe14532e	-0.14484856
165	0xbddba6b2	-0.10725154
166	0xbdd2bcac	-0.102898926
167	0xbe158cee	-0.14604542
168	0x3e04bba0	0.12962198
169	0x3e82c542	0.2554112
170	0x3de1f854	0.11033693
171	0xbc140560	-0.009034485
172	0x3e8d2500	0.2756729
173	0xbe89e31c	-0.26931083
174	0x3d97fdbc	0.07421443
175	0xbe81dd9d	-0.2536439
176	0x3e97983a	0.29608327
177	0xbe8f5060	-0.2799101
178	0x3e76df64	0.24108654
179	0x3ddf5bc0	0.10906172
180	0xbe85961b	-0.26091084
181	0xbd221ab0	-0.039576232
182	0xbe99292a	-0.29914218
183	0x3e99497e	0.29938883
184	0xbe7b5a37	-0.24546133
185	0xbded3db6	-0.11584036
186	0x3e8745e8	0.26420522
187	0x3cc60720	0.02417332
188	0x3e4e7224	0.20160729
189	0xbd2427b8	-0.04007694
190	0xbe1dd65d	-0.15413804
191	0xbd5ff140	-0.054673433
192	0x3e23bfb8	0.15991104
193	0x3ce64f40	0.028113961
194	0xbe00384a	-0.12521473
195	0xbe6a3e1f	-0.2287526
196	0xbe76907a	-0.24078551
197	0xbd6569d8	-0.056009144
198	0x3d830b18	0.063986
199	0x3c4e9ea0	0.012611061
200	0xbe3b21d9	-0.1827463
201	0xbe54040c	-0.20704669
202	0xbe1200aa	-0.14258066
203	0xbd5c02a8	-0.05371347
204	0x3e88dd2e	0.26731247
205	0x3cd3ddd0	0.025862604
206	0x3d912264	0.070866376
207	0xbdc513d2	-0.09622921
208	0xbdff37b8	-0.124617994
209	0xbe629bde	-0.22129771
210	0xbe153152	-0.14569595
211	0xbe6e207f	-0.23254584
212	0xbe5083fc	-0.20362848
213	0x3dab8088	0.08374125
214	0x3e9536ce	0.29143375
215	0x3e7009e4	0.23441273
216	0x3e2e7a28	0.17038786
217	0xbc8723f0	-0.016496629
218	0x3cdea180	0.027176619
219	0xbe5eec01	-0.21769716
220	0xbe01cde0	-0.12676191
221	0x3e8a78ae	0.27045196
222	0x3e8a6496	0.27029866
223	0x3db26fd0	0.08712733
224	0xbdbafcc6	-0.09130244
225	0xbe64c74c	-0.2234165
226	0x3e05507c	0.13018984
227	0xbc17c1e0	-0.009262532
228	0x3e1374fa	0.14400092
229	0x3e6c6938	0.23087013
230	0xbe1ea523	-0.15492682
231	0xbe69865a	-0.22805157
232	0xbe87cbb4	-0.265226
233	0x3e5bf440	0.21479893
234	0x3e518608	0.20461285
235	0x3e32ea9a	0.17472306
236	0xbe4d6c89	-0.20060934
237	0xbe41b7f4	-0.18917829
238	0x3e5464b0	0.20741534
239	0x3e0fe3e6	0.1405178
240	0xbce035c0	-0.02736938
241	0x3e7b0f4c	0.24517554
242	0x3e7e12f4	0.24811918
243	0xbe2654d4	-0.16243297
244	0xbe889cb5	-0.26682058
245	0x3d90ee5c	0.070767134
246	0x3e8f83ca	0.28030235
247	0xbe85ca8b	-0.2613109
248	0xbe4e1b45	-0.2012759
249	0xbcd937b0	-0.026515812
250	0xbe004220	-0.12525225
251	0x3cc34db0	0.023840755
252	0x3b310080	0.0027008355
253	0x3e21b762	0.15792611
254	0xbe96a064	-0.29419243
255	0xbe96bc17	-0.29440376

fc.0.bias f4 [128]
0	0xbe91f9d3	-0.28510913
1	0xbc39e0a0	-0.011345059
2	0xbe4400a4	-0.1914087
3	0x3e4e12dc	0.20124382
4	0x3c3300e0	0.010925502
5	0x3d3b58a0	0.045738816
6	0x3e0a50fc	0.13507456
7	0xbe830ec0	-0.2559719
8	0xbe6afe75	-0.2294863
9	0xbd7783c8	-0.06042841
10	0x3d9de2d4	0.0770928
11	0x3dbcddec	0.09222016
12	0x3e378c74	0.17924672
13	0x3d8ec794	0.0697166
14	0xbda8fa9c	-0.08250925
15	0xbe92e242	-0.28688246
16	0xbd0c5798	-0.034263223
17	0xbd0ac5b8	-0.033879966
18	0x3e923246	0.2855398
19	0x3e391424	0.1807409
20	0x3e71e2f8	0.23621738
21	0xbe4b848c	-0.19874781
22	0xbe8708e8	-0.26373982
23	0xbe06f29d	-0.13178487
24	0xbe3be71f	-0.18349884
25	0x3e56debc	0.20983404
26	0x3e3e569a	0.18587723
27	0x3e3f9464	0.1870895
28	0x3e75edfc	0.24016565
29	0xbd5b6884	-0.05356647
30	0x3e76a0d4	0.24084789
31	0xbe719358	-0.23591363
32	0x3c431b20	0.011908323
33	0xbe649a40	-0.22324467
34	0x3cc24ec0	0.023719192
35	0xbe4a3993	-0.19748525
36	0xbe05eccf	-0.13078617
37	0x3e3b3074	0.18280202
38	0xbe775755	-0.24154408
39	0xbe86b550	-0.26310205
40	0xbe2fa507	-0.17152797
41	0xbe23cb2a	-0.1599547
42	0x3d5fc1b8	0.054628104
43	0x3e9309e6	0.2871849
44	0x3e906940	0.282053
45	0xbe70bcc5	-0.2350951
46	0xbdcf1dac	-0.10113081
47	0x3deed150	0.11661017
48	0x3e7d1f78	0.24719036
49	0x3e5a44b8	0.21315277
50	0x3e2fe5b8	0.17177474
51	0x3d898a20	0.067157984
52	0xbe89801f	-0.2685556
53	0xbe968fcd	-0.29406586
54	0xbe97a41b	-0.2961739
55	0x3e370318	0.17872274
56	0x3dedcf6c	0.11611828
57	0x3d009808	0.03139499
58	0x3e2f6754	0.1712926
59	0x3e0ae3a4	0.135634
60	0xbe9691f0	-0.29408216
61	0xbe7c6d5d	-0.24651094
62	0xbd9e8226	-0.077396676
63	0x3e2318e8	0.1592747
64	0x3e743e58	0.23851907
65	0xbdd8d89c	-0.1058819
66	0x3c144180	0.00904882
67	0xbb7f7500	-0.003897965
68	0xbe82f7b4	-0.25579607
69	0xbe5a54d6	-0.21321425
70	0xbe57ee0c	-0.21086901
71	0xbe446600	-0.19179535
72	0xbe4664a8	-0.19374335
73	0x3e8752d6	0.26430386
74	0x3e5411dc	0.20709938
75	0xbe5ed7c2	-0.21761993
76	0xbe2e882d	-0.17044134
77	0x3e3bf604	0.18355566
78	0x3e5003c8	0.20313942
79	0x3e99eb1c	0.30062187
80	0xbda4c76a	-0.08045848
81	0x3e98d630	0.29850912
82	0x3b1e1280	0.0024119914
83	0xbe88b466	-0.26700133
84	0xbbe97b00	-0.0071252584
85	0xbddbf4b2	-0.10740031
86	0x3e88bde4	0.26707375
87	0xbd3b8a90	-0.04578644
88	0xbe1805ef	-0.14846013
89	0xbe899a5d	-0.26875582
90	0x3e8beb06	0.27327746
91	0x3d0c8780	0.03430891
92	0xbe3c0e42	-0.18364814
93	0xbd8f08e0	-0.06984115
94	0x3d11e398	0.03561744
95	0xbe9060f9	-0.28198984
96	0x3d54d2a0	0.05195868
97	0xbe11b8f4	-0.1423071
98	0xbdf6101c	-0.12014791
99	0xbe8373ae	-0.25674194
100	0x3e108bdc	0.14115852
101	0xbe96e87c	-0.29474247
102	0x3d774588	0.060369045
103	0x3e93f400	0.28897095
104	0x3e32ce14	0.17461425
105	0xbba39540	-0.004992157
106	0xbe7bcec0	-0.24590588
107	0x3e813cce	0.25241703
108	0xbc198e20	-0.009372264
109	0x3e886ebc	0.26646984
110	0x3d34bff8	0.04412839
111	0xbdd5f4d6	-0.104470894
112	0x3e2ad122	0.1668134
113	0xbe767e72	-0.24071673
114	0xbd97c716	-0.074110195
115	0x3e1a9f3e	0.15099809
116	0xbd3747b0	-0.0447461
117	0x3dbee8bc	0.09321734
118	0x3d992634	0.0747799
119	0x3e4974fa	0.1967353
120	0x3e8f255e	0.27958196
121	0x3c469320	0.012120038
122	0xbe85dcc8	-0.26145005
123	0xbe42278e	-0.18960401
124	0x3e5ab3fc	0.21357721
125	0xbe2809b3	-0.1640995
126	0x3e87d530	0.26529837
127	0xbe82231c	-0.2541741

fc.2.weight f4 [128, 128]
0	0xbd725b84	-0.059169307
1	0xbbcf3d40	-0.0063244402
2	0xbc812408	-0.015764251
3	0xbd3480b6	-0.04406806
4	0xbbe1a180	-0.0068857074
5	0x3ce71d20	0.02821213
6	0x3c00e690	0.00786747
7	0xbcc10668	-0.023562625
8	0x3d331ad2	0.04372675
9	0xbd111616	-0.035421453
10	0x3d9f7977	0.077868395
11	0x3d948a1f	0.07252907
12	0xbd81e215	-0.0634195
13	0xbdb30965	-0.08742026
14	0xbd431f2f	-0.04763716
15	0x3d46297a	0.0483794
16	0x3d0a64f2	0.033787675
17	0x3d7ed7d6	0.062217556
18	0xbcf0dcb4	-0.029402114
19	0x3d04a7e8	0.03238669
20	0x3d477586	0.048696063
21	0xbd37c3a0	-0.044864297
22	0xbccd43b8	-0.025056705
23	0x3d54e582	0.05197669
24	0xbd0a465d	-0.03375851
25	0x3d90b3f9	0.07065577
26	0x3c2b4870	0.010454282
27	0x3d6b7f2a	0.05749432
28	0xbd1d15b7	-0.038350787
29	0x3cd6e390	0.026231557
30	0xbc928a40	-0.017888188
31	0xbcaea48c	-0.021318696
32	0x3d22a4b6	0.03970786
33	0xbd0838d4	-0.03325732
34	0xbb2e1a80	-0.0026566088
35	0xbcc488cc	-0.023991011
36	0x3d2c8b7a	0.042125203
37	0x3d191a8e	0.03737884
38	0x3c8751b0	0.016518444
39	0xbd44a43f	-0.0480082
40	0xbd876489	-0.066109724
41	0xb9850f00	-0.00025378913
42	0x3d586552	0.052831
43	0xbd65779d	-0.056022275
44	0x3b62b360	0.003459178
45	0xbda39eb2	-0.07989253
46	0xbd821aba	-0.06352754
47	0xbd435da7	-0.047696736
48	0xbc7275f8	-0.014798634
49	0x3d8c87c7	0.06861835
50	0x3b330e40	0.0027321726
51	0xbd136bf8	-0.03599164
52	0xbdabc7c8	-0.083877146
53	0xbd0509ad	-0.03247993
54	0x3d846ad7	0.064656906
55	0x3d94a01d	0.07257102
56	0xbca0e034	-0.019638158
57	0x3d967f65	0.07348517
58	0xbcfc812e	-0.030823316
59	0xbc772c98	-0.015086316
60	0xbd01879b	-0.031623464
61	0x3db01473	0.085976504
62	0x3d803ff3	0.06262197
63	0xbd95fda5	-0.073237695
64	0xbaca0cc0	-0.0015415177
65	0x3d8746e3	0.066053174
66	0xbd1c3182	-0.03813315
67	0xbcd9144c	-0.026498936
68	0xbd4945a5	-0.049138684
69	0xbd882793	-0.06648173
70	0xbd914a1c	-0.07094213
71	0x3da46cef	0.0802859
72	0x3d948dfb	0.07253643
73	0x3d184b5a	0.037181236
74	0xbcd05fb0	-0.025436252
75	0xbce0a724	-0.027423449
76	0xbcb8682c	-0.02251061
77	0xbd48ddf1	-0.049039785
78	0x3d9bdd2d	0.07610545
79	0x3d6b6602	0.05747033
80	0xbce6d642	-0.028178338
81	0xbca41b98	-0.020032689
82	0x3d8e3a7d	0.069447495
83	0x3d751bee	0.05984109
84	0x3c3892e0	0.0112654865
85	0xbdad241b	-0.08454152
86	0xbdb25ed5	-0.08709494
87	0x3d2e3062	0.04252661
88	0x3d287262	0.04112471
89	0x3dab5701	0.08366204
90	0xbd23bc8a	-0.039974727
91	0xbd9ddb2f	-0.077078216
92	0x3c9ac354	0.018891968
93	0x3d7b19a2	0.061303742
94	0xbca5dd58	-0.020247146
95	0x3ccad9a8	0.02476199
96	0xbc2bd338	-0.01048737
97	0x3d357446	0.04430034
98	0x3d76a776	0.060218297
99	0xbd656718	-0.05600652
100	0x3d935e1f	0.071956865
101	0xbd3b6fe1	-0.045760993
102	0xbd2e8688	-0.042608768
103	0x3d32b5be	0.043630354
104	0xbd70a620	-0.05875218
105	0xbd5e3877	-0.054253068
106	0xbda03fb7	-0.07824653
107	0x3cafbf58	0.021453544
108	0xbc8b2598	-0.0169857
109	0x3d92013b	0.07129141
110	0xbd36c79f	-0.044623967
111	0x3d90f007	0.070770316
112	0xbd93947c	-0.072060555
113	0x3daf3ebb	0.08556887
114	0xbd364f64	-0.044509307
115	0xbd8a9d3f	-0.067682736
116	0xbd374280	-0.044741154
117	0x3dafd003	0.08584597
118	0xbd537807	-0.05162814
119	0x3c401948	0.0117247775
120	0xbd265dae	-0.040616684
121	0x3d94e53b	0.07270285
122	0xbd94512e	-0.07242046
123	0xbd90a9e6	-0.070636556
124	0x3c48dfd0	0.012260392
125	0x3d3ec8be	0.04657816
126	0x3d1e24aa	0.038609184
127	0xbb1bac60	-0.0023753867
128	0xbd61b938	-0.05510828
129	0x3d0b198c	0.03395991
130	0xbcc1aa54	-0.02364079
131	0x3d871b83	0.06597044
132	0xbdaf86ad	-0.08570609
133	0x3c49bf08	0.012313612
134	0x3b52d4e0	0.003217034
135	0x3d34553a	0.04402659
136	0x3c225420	0.009907752
137	0xbdacadec	-0.084316105
138	0xbbc77470	-0.0060868785
139	0xbd45b969	-0.048272524
140	0x3c9953b8	0.018716678
141	0xbd7c0168	-0.06152478
142	0x3c021fe0	0.00794217
143	0x3ca9d3f4	0.02073095
144	0xbd91ccf5	-0.071191706
145	0x3db200ff	0.08691596
146	0xbd285634	-0.041097835
147	0xbd7501b2	-0.05981607
148	0x3d30149e	0.042988412
149	0xbd073f95	-0.03301962
150	0x3cd0513c	0.02542936
151	0x3d23b2e2	0.039965518
152	0xbda03bed	-0.0782393
153	0xbd10978c	-0.035300776
154	0x3d1e1d0a	0.038601913
155	0xbd79642f	-0.06088656
156	0x3d82cc37	0.06386607
157	0x3da52af3	0.080648325
158	0x3d19de2a	0.037565388
159	0x3d7427f2	0.059608407
160	0xbda3ed44	-0.08004239
161	0x3c009158	0.007847153
162	0x3d2e1142	0.042496927
163	0x3d43497e	0.04767751
164	0xbc8513c4	-0.016244777
165	0x3c0c5b68	0.008566715
166	0x3d8b16cd	0.06791458
167	0x3c50d6a8	0.012746491
168	0xbd7d4885	-0.06183674
169	0x3d918a4f	0.071064584
170	0x3cdfe2f0	0.027329892
171	0xbc2ba060	-0.010475248
172	0x3c3ea848	0.011636801
173	0x3c88c9c8	0.01669778
174	0x3d5829ea	0.052774347
175	0xbd34b16f	-0.044114526
176	0xbd974d16	-0.0738775
177	0x3a5b8680	0.0008374229
178	0xbc2fdbb8	-0.010733537
179	0xbd8748c6	-0.06605677
180	0x3d2320aa	0.039826073
181	0x3d44c83e	0.04804253
182	0x3cf19888	0.029491678
183	0xbd2fe810	-0.04294592
184	0xbd830c11	-0.06398786
185	0x3d096922	0.033547528
186	0xbc1b0790	-0.009462252
187	0xbc7f36c0	-0.015577018
188	0x3daacaf5	0.08339492
189	0x3dae661d	0.0851557
190	0x3c84a770	0.016193122
191	0x3da2c0ff	0.07946967
192	0x3cc779c4	0.024350055
193	0xbd3d9eef	-0.04629415
194	0xbbab05d0	-0.0052191988
195	0xbd3c024b	-0.045900624
196	0x3c9738b8	0.018459663
197	0xbbc85d00	-0.006114602
198	0x3d9a9ae9	0.07549078
199	0x3d0dde54	0.034635857
200	0xbcf14d56	-0.029455822
201	0xbd974c5c	-0.07387611
202	0x3d12281c	0.035682783
203	0x3c4af060	0.012386411
204	0xbcf67416	-0.030084651
205	0xbc98b374	-0.018640257
206	0xbd9b849a	-0.07593651
207	0xbc8c98c4	-0.017162688
208	0xbda8f334	-0.08249512
209	0x3d16303e	0.0366671
210	0xbb61df40	-0.0034465343
211	0xbce59892	-0.028026853
212	0x3d5e7c92	0.05431802
213	0x3d356686	0.044287227
214	0xbdb20af8	-0.086934984
215	0x3d19aa82	0.037516125
216	0x3cf9c180	0.030487776
217	0x3d3ee6fe	0.04660701
218	0x3da21727	0.07914572
219	0x3d1ad546	0.03780105
220	0xbd2421e3	-0.04007138
221	0xbc4ce558	-0.012505852
222	0x3db0f637	0.08640712
223	0xbd53bcd7	-0.051693764
224	0x3da50535	0.08057634
225	0x3dae47a5	0.08509759
226	0x3d931831	0.071823485
227	0xbd18fea2	-0.03735221
228	0x3d723b3a	0.059138514
229	0xbd5bc701	-0.05365658
230	0xbd8c82f0	-0.06860912
231	0x3c0d7f70	0.0086363405
232	0xbbdea1b0	-0.006794177
233	0xbc6eb7d8	-0.014570199
234	0x3d8b1c6d	0.06792531
235	0xbcd9dc1e	-0.026594218
236	0xbd9b1caa	-0.075738266
237	0x3d8b3b95	0.06798474
238	0x3d9909d1	0.074725755
239	0x3d988819	0.074478336
240	0xbd52c0d2	-0.05145342
241	0x3cd21fac	0.025649868
242	0xbd7f4644	-0.06232287
243	0xbd7d3ba3	-0.061824452
244	0xbb7f83a0	-0.0038988367
245	0xbd0f2e1e	-0.03495609
246	0x3daa9841	0.083298214
247	0xbd910dd1	-0.070827134
248	0xb9e88b00	-0.0004435405
249	0xbd21afa5	-0.03947415
250	0x3d7fbbc2	0.06243492
251	0xbd2fc2ed	-0.042910505
252	0x3d7d0452	0.0617717
253	0x3ca7683c	0.020435445
254	0xbd81d35c	-0.06339142
255	0x3daae9c5	0.08345369

fc.2.bias f4 [128]
0	0xbd723872	-0.05913586
1	0x3cd63a3c	0.026150815
2	0xbca05124	-0.01956994
3	0xbd633ba7	-0.05547681
4	0x3d55c2b2	0.05218763
5	0xbd9c42aa	-0.07629903
6	0xbcbca9bc	-0.023030154
7	0x3c83dff8	0.016098008
8	0xbcdc71b4	-0.026909687
9	0x3c3cf088	0.0115319565
10	0x3da64029	0.08117706
11	0xbd8ba254	-0.06818071
12	0x3d84d837	0.06486552
13	0xba7a1380	-0.0009539649
14	0xbd6dc993	-0.058053564
15	0xba7a2880	-0.0009542778
16	0xbd7ee6e0	-0.0622319
17	0xbab50b00	-0.0013812482
18	0x3d2e0166	0.042481802
19	0x3cfdd074	0.030983187
20	0xbd8c6412	-0.068550244
21	0x3da77aaf	0.08177697
22	0x3b82c610	0.003990896
23	0xbcfc7c14	-0.030820884
24	0xbcc6bf88	-0.024261251
25	0xbd04f5bf	-0.032460924
26	0xbc935fe0	-0.017990053
27	0xbcde39ca	-0.027127165
28	0x3daf2c7f	0.08553409
29	0x3dabe98b	0.08394154
30	0x3d6de5f2	0.05808062
31	0xbdb236c6	-0.087018535
32	0xbda41e97	-0.08013647
33	0x3d23e10e	0.04000955
34	0x3da2b9a1	0.07945562
35	0xbd312914	-0.043252066
36	0x3c93ded8	0.018050596
37	0x3d5ea2ee	0.0543546
38	0xbd70027f	-0.05859613
39	0xbd7c472a	-0.061591305
40	0xbd35dece	-0.044401936
41	0x3d90e039	0.07074017
42	0x3cfa952c	0.030588709
43	0xbcc92904	-0.02455569
44	0xbd21dbcb	-0.03951625
45	0xb9282600	-0.00016035885
46	0x3cc085f4	0.023501374
47	0x3d04b51c	0.03239928
48	0xbcb4ac5c	-0.022054844
49	0xbd1f1269	-0.038835917
50	0x3d45ed46	0.048321985
51	0xbd1d1425	-0.03834929
52	0xbd9aae51	-0.075527795
53	0x3d4ba80a	0.0497208
54	0xbcf97702	-0.030452255
55	0x3d643706	0.055716537
56	0x3c834dcc	0.016028307
57	0xbd6052f0	-0.054766595
58	0xbd869654	-0.065716416
59	0xbc1c60d8	-0.009544574
60	0x3d5afd12	0.053464003
61	0xbb6127a0	-0.0034355894
62	0xbd3bd98f	-0.045861777
63	0x3d8e61d9	0.06952257
64	0xbc91b26c	-0.017785273
65	0x3aebff40	0.0018005148
66	0xbd048af0	-0.032359064
67	0x3c445cf0	0.011985049
68	0xbd281161	-0.0410322
69	0xbda7c80a	-0.08192451
70	0x3d17814a	0.036988534
71	0x3d9d5847	0.07682853
72	0x3db271c9	0.08713109
73	0xbd9cd845	-0.07658438
74	0xbca90668	-0.020632938
75	0xbd9df620	-0.0771296
76	0x3cc8fb24	0.024533816
77	0x3d078a84	0.033091083
78	0xbdb25f70	-0.087096095
79	0x3c17a968	0.009256698
80	0xbda13197	-0.07870787
81	0x3d8941b3	0.06701984
82	0xbb929320	-0.004473105
83	0x3d3a6c1e	0.045513265
84	0xbb7d2760	-0.0038628206
85	0x3d18feca	0.03735236
86	0xbd673d9c	-0.05645524
87	0x3da53ed1	0.08068622
88	0xbda74c41	-0.08168841
89	0xbd75fafc	-0.06005381
90	0x3d5d1fd2	0.053985424
91	0xbd7729b7	-0.060342517
92	0x3c9068ac	0.017628036
93	0xbdab1baa	-0.08354886
94	0xbcbe3bc0	-0.02322185
95	0xbd205485	-0.039143104
96	0x3c599518	0.013280176
97	0xbda3fe2b	-0.08007463
98	0xba4ee680	-0.00078926235
99	0x3d5d0ca2	0.053967126
100	0x3c578788	0.013154872
101	0xbd65256f	-0.055943903
102	0xbcef6b32	-0.02922592
103	0x3d6a8a76	0.057260953
104	0xbbeda3c0	-0.0072521865
105	0x3d6df106	0.058091186
106	0x3d45e68e	0.048315577
107	0x3d5f2f3a	0.054488398
108	0xbd0acc75	-0.03388639
109	0xbd370d3f	-0.044690367
110	0xbc0e7718	-0.008695386
111	0x3d2f2bca	0.04276637
112	0xbd9a13f9	-0.07523341
113	0x3da3c0f3	0.079957865
114	0xbcafeffc	-0.021476738
115	0x3a4d6600	0.00078353286
116	0x3c417f28	0.011810102
117	0xbd85c946	-0.065325305
118	0x3d4e4ffa	0.05036924
119	0xbd8522b0	-0.06500757
120	0x3dae13eb	0.08499893
121	0x3d0e0ffc	0.034683213
122	0xbbe62c40	-0.007024318
123	0x3d4c85d6	0.049932323
124	0xbd83aa6e	-0.06428991
125	0x3dadfad1	0.08495105
126	0xbcc5ee90	-0.024161607
127	0x3cd6ddfc	0.026228897

fc.4.weight f4 [4, 128]
0	0x3d87e827	0.066360764
1	0x3d856bf3	0.0651473
2	0xbbc45380	-0.0059913993
3	0xbcb80534	-0.022463419
4	0xbda9040c	-0.08252725
5	0x3cf73180	0.03017497
6	0x3c969590	0.018381864
7	0x3d6ef20a	0.058336295
8	0x3cbba4cc	0.02290573
9	0x3d60e50e	0.054905944
10	0xbd04ee47	-0.0324538
11	0x3d3f8752	0.04675991
12	0x3cea8d50	0.028631836
13	0x3da8e1cb	0.082461916
14	0x3da9a567	0.08283501
15	0x3c9a7668	0.018855289
16	0x3d827713	0.06370368
17	0x3d97f2bb	0.07419344
18	0x3d844d43	0.06460049
19	0xbcd39f08	-0.025832668
20	0x3d79b9de	0.060968272
21	0xbd86940e	-0.06571208
22	0xba631d00	-0.0008663684
23	0x3d876bf9	0.06612391
24	0x3d6cb37e	0.057788365
25	0x3db13cbb	0.086541615
26	0xbd6ee24e	-0.05832129
27	0x3d70af72	0.058761068
28	0x3d80dfe3	0.06292703
29	0xbd35f2ba	-0.044420935
30	0x3d3ee89a	0.046608545
31	0xbd36fe9e	-0.044676416
32	0xba40a980	-0.0007349476
33	0xbd9269aa	-0.0714906
34	0xbd7d1848	-0.061790735
35	0x3cfd58e4	0.030926175
36	0xbcfcc882	-0.030857328
37	0x3d112122	0.03543199
38	0xbd4e97c9	-0.050437722
39	0x3d771716	0.06032475
40	0xbdb06f58	-0.08614987
41	0xbd8bdd6f	-0.068293445
42	0xbd9b205a	-0.0757453
43	0xbc1413e0	-0.009037942
44	0xbd5e246c	-0.054233953
45	0xbd4e5cfc	-0.050381646
46	0x3d67e362	0.056613334
47	0x3d7639fa	0.060113885
48	0xbd7c3a8c	-0.061579272
49	0xbcd87882	-0.02642465
50	0xbd5232d6	-0.051318012
51	0xbd657022	-0.05601514
52	0xbd288e65	-0.041151423
53	0xbd853123	-0.06503513
54	0x3da78639	0.08179898
55	0xbd505cb8	-0.050869673
56	0x3d6f8846	0.05847957
57	0xbdadc58c	-0.08484945
58	0x3cefa26c	0.029252253
59	0xbd2f934c	-0.042865083
60	0x3d0d63ca	0.034518994
61	0x3d91da4d	0.07121716
62	0x3b1960a0	0.002340354
63	0xbd9f9675	-0.07792369
64	0x3d8e8bcd	0.06960259
65	0xbda4d5f9	-0.080486245
66	0x3b6264a0	0.003454484
67	0xbd01ce05	-0.031690616
68	0xbd989ed8	-0.07452172
69	0x3bb8c630	0.00563886
70	0xbd153339	-0.036425803
71	0xbd62dbc0	-0.05538535
72	0xbb1a0ee0	-0.0023507401
73	0xbdad5f49	-0.0846544
74	0x3d9a6dd9	0.07540483
75	0x3dabff07	0.08398252
76	0xbcd81710	-0.026378185
77	0x3ccfa4bc	0.025347106
78	0xba9d5ac0	-0.0012005195
79	0xbd0a5be2	-0.033779033
80	0x3dabbc59	0.08385534
81	0xbb952660	-0.004551694
82	0xbd99e812	-0.07514967
83	0xbcf8f964	-0.030392356
84	0x3d924407	0.071418814
85	0x3d48c97e	0.049020283
86	0x3d513dc6	0.051084302
87	0xbd972248	-0.073795855
88	0x3d2fe93e	0.042947046
89	0x3d80a017	0.06280535
90	0xbdb07c9c	-0.08617517
91	0xbce2597a	-0.027630556
92	0x3cb26320	0.021775782
93	0x3c9c5700	0.019084454
94	0xbd80769a	-0.062726215
95	0x3da95ecd	0.08270035
96	0xbd5f9d9b	-0.054593664
97	0x3cae8a78	0.021306261
98	0xbd552a89	-0.052042518
99	0x3c21d840	0.009878218
100	0xbd061926	-0.032738827
101	0x3d413c4a	0.047176637
102	0x3d0a952c	0.033833668
103	0xbca87bdc	-0.020566873
104	0xbd393bf9	-0.04522321
105	0xbd0d2ab1	-0.03446454
106	0xbc1695a8	-0.009190954
107	0x3d9ded93	0.07711329
108	0xbd9f2c75	-0.077721514
109	0xbb5653c0	-0.0032703727
110	0x3c14a0b8	0.009071521
111	0x3ccad3bc	0.024759166
112	0xbd08ccf1	-0.033398572
113	0xbc9f0078	-0.019409403
114	0xbc919e94	-0.017775811
115	0xbd776270	-0.06039661
116	0x3da7ad81	0.0818739
117	0xbb0290a0	-0.001992263
118	0x3d01c50e	0.031682067
119	0x3d58e63a	0.052953936
120	0x3da60fb7	0.08108466
121	0x3d82db43	0.06389477
122	0x3d6a8cea	0.057263292
123	0x3dae6fd7	0.085174255
124	0x3d56ef8a	0.052474536
125	0xbd943668	-0.0723694
126	0xbd547dec	-0.0518779
127	0x3c29e1b0	0.0103687495
128	0x3d2834a6	0.041065834
129	0xbcfacf42	-0.030616406
130	0xbc33e930	-0.010980889
131	0xbce92162	-0.028458301
132	0x3d9781e3	0.07397821
133	0x3ca0a7ec	0.019611321
134	0xbc454b90	-0.012041941
135	0xbd9df3ec	-0.0771254
136	0x3d754196	0.059877
137	0x3d3f081a	0.046638586
138	0x3da5d57d	0.0809736
139	0xbc88670c	-0.0166507
140	0xbd04442f	-0.032291587
141	0xbc95fa94	-0.018307962
142	0xbd93e6a1	-0.07221723
143	0x3c305760	0.010763019
144	0x3d467e0a	0.048460044
145	0x3d390ba2	0.04517711
146	0x3d5543aa	0.052066483
147	0xbb740820	-0.0037236288
148	0xbd18354e	-0.03716021
149	0x3cdbb7ac	0.02682098
150	0x3d853d1d	0.06505797
151	0xbd5b79c4	-0.05358292
152	0xbd6201dd	-0.05517756
153	0xbd6b8b3a	-0.057505824
154	0x3d722f6a	0.05912725
155	0x3ce65ce0	0.028120458
156	0x3caef830	0.02135858
157	0x3cfee414	0.031114615
158	0x3d235b4e	0.039881997
159	0x3ce83848	0.02834715
160	0xbdb30abd	-0.087422825
161	0xbce8172e	-0.028331365
162	0x3db4d973	0.08830538
163	0x3d928211	0.071537144
164	0xbd2f050c	-0.042729422
165	0x3ccc4734	0.024936296
166	0xbd71976d	-0.0589823
167	0xbc9b2700	-0.018939495
168	0x3d6aa58a	0.057286777
169	0xbd537191	-0.051621977
170	0x3d9eb697	0.0774967
171	0x3cf6495c	0.030064277
172	0xbc637b10	-0.013884321
173	0x3ac1dfc0	0.0014791414
174	0x3d399b7e	0.045314305
175	0x3d922069	0.07135088
176	0x3d7a0946	0.061044
177	0x3d51ce2a	0.051222004
178	0x3d7ebf5e	0.06219422
179	0xbcf8f3b6	-0.030389648
180	0xbd0bdf7d	-0.034148682
181	0x3d03a332	0.032138057
182	0xbccc33c8	-0.024927035
183	0xbcfa90f2	-0.030586693
184	0x3bff35b0	0.0077883825
185	0x3d581b0e	0.052760176
186	0xbd9347ca	-0.07191427
187	0x3d52f316	0.051501356
188	0xbd884f25	-0.066557206
189	0xbc477d08	-0.012175806
190	0xbd5bf440	-0.05369973
191	0x3c5924c0	0.013253391
192	0x3cf918ec	0.030407391
193	0xbd0b5cc3	-0.03402401
194	0xbcfb3eda	-0.030669618
195	0x3d163222	0.036668904
196	0x3d62e33e	0.055392496
197	0x3d4b1e7a	0.04958961
198	0xbd9084a0	-0.07056546
199	0x3d951e79	0.07281203
200	0x3d88f321	0.06686998
201	0x3d049cd0	0.03237611
202	0xbd0070da	-0.031357624
203	0x3c8b9e30	0.017043203
204	0xbd83285e	-0.06404184
205	0x3bf84d20	0.0075775534
206	0xbc9213b8	-0.017831668
207	0xbd63c192	-0.055604525
208	0xbda16f45	-0.07882551
209	0x3d9a563d	0.0753598
210	0xbdab00e4	-0.08349779
211	0x3a609a80	0.0008567944
212	0x3d04f8ac	0.032463714
213	0x3ca209d8	0.019780084
214	0x3b1d0e20	0.0023964718
215	0xbd51d19c	-0.05122529
216	0xbd3e0a89	-0.046396766
217	0x3d52a712	0.051428862
218	0x3bd9b1d0	0.0066435114
219	0x3c9f4e68	0.019446567
220	0xbd83fcb3	-0.06444683
221	0x3d06923e	0.03285431
222	0x3b4f6820	0.0031647757
223	0x3da3b989	0.079943724
224	0x3d258886	0.040413402
225	0x3d4ca73e	0.049964182
226	0x3c22aee0	0.009929389
227	0x3ce8a4e4	0.028398938
228	0xbd421b90	-0.047389567
229	0xbd61d8ac	-0.055138275
230	0x3da20f99	0.07913131
231	0x3d340982	0.04395438
232	0x3cc07e84	0.023497827
233	0x3d340542	0.043950327
234	0x3cfad5b8	0.030619487
235	0xbcbd9d2c	-0.023146234
236	0xbd522065	-0.051300425
237	0xbd5d4a58	-0.054025978
238	0x3d811e4b	0.06304606
239	0xbccf93f0	-0.025339097
240	0xbda96044	-0.08270314
241	0x3c808d74	0.01569245
242	0xbd655f5a	-0.055999137
243	0xbd6aba28	-0.05730644
244	0x3d9445c7	0.072398715
245	0xbd0146dd	-0.03156172
246	0x3d12dbc0	0.0358541
247	0x3d241132	0.04005546
248	0x3d8ec8fb	0.06971928
249	0xbd85e19f	-0.065371744
250	0x3bd2b860	0.0064306706
251	0xbbef7c60	-0.007308528
252	0x3d9c8eef	0.0764445
253	0xbcb9e790	-0.022693425
254	0x3d33110a	0.04371742
255	0x3cc09770	0.023509711

fc.4.bias f4 [4]
0	0xbd196fae	-0.03746002
1	0x3bfdab30	0.0077413544
2	0xbd47d1d7	-0.048784103
3	0xbd3b7f8e	-0.045775943
